mangafaver/.dart_tool/chrome-device/Default/optimization_guide_prediction_model_downloads/e882adb2-9a5c-41e2-a037-d0d1b1a2657c/model.tflite (tflite, 498468 bytes, 160 tensors)

context_transformer_0/bottleneck_input/norm/add;StatefulPartitionedCall/context_transformer_0/bottleneck_input/norm/add;context_transformer_0/bottleneck_input/dense/einsum/Einsum;StatefulPartitionedCall/context_transformer_0/bottleneck_input/dense/einsum/Einsum;context_transformer_0/bottleneck_input/norm/mul;StatefulPartitionedCall/context_transformer_0/bottleneck_input/norm/mul;context_transformer_0/bottleneck_input/dense/add;StatefulPartitionedCall/context_transformer_0/bottleneck_input/dense/add;12614;12616;12618 f4 [32]
000000 04 67 83 bd e2 ee 17 3c 58 f5 69 bd 76 51 2d 3d
       -0.06416133 0.009273263 -0.057118744 0.042314015
000010 e4 8f 30 bd 24 77 87 be 2e b7 63 bc c8 60 6e 3c
       -0.043105975 -0.26458085 -0.013898654 0.014549442
000020 66 1c da 3d 2e cc ea bc 5d cf 41 3d 6b 80 b3 bd
       0.10649948 -0.028661814 0.047316898 -0.08764728
000030 52 fd 43 be 0a 2d 36 bd 06 07 a6 3c a6 1c f2 3d
       -0.19139603 -0.044476546 0.02026702 0.118218705
000040 41 08 34 3e 09 b0 69 3a 58 49 23 be 21 79 16 3c
       0.17581274 0.0008914476 -0.15945947 0.009184153
000050 b4 3f 95 3d e6 2b 9b 3c a0 b0 cd bd 4a 4e 05 3d
       0.07287541 0.01894183 -0.10043454 0.032545365
000060 b0 13 f4 3d eb 0f fb 3d 72 39 18 be ec 55 37 be
       0.119178176 0.122588955 -0.14865664 -0.1790387
000070 5f 07 8e bd 90 78 29 3e a4 ec 37 3e 9b eb a0 3d
       -0.06935 0.16549897 0.17961365 0.07857438

context_transformer_1/bottleneck_input/norm/add;StatefulPartitionedCall/context_transformer_1/bottleneck_input/norm/add;context_transformer_0/bottleneck_input/dense/einsum/Einsum;StatefulPartitionedCall/context_transformer_0/bottleneck_input/dense/einsum/Einsum;context_transformer_1/bottleneck_input/norm/mul;StatefulPartitionedCall/context_transformer_1/bottleneck_input/norm/mul;context_transformer_1/bottleneck_input/dense/add;StatefulPartitionedCall/context_transformer_1/bottleneck_input/dense/add;context_transformer_1/bottleneck_input/dense/einsum/Einsum;StatefulPartitionedCall/context_transformer_1/bottleneck_input/dense/einsum/Einsum;12706;12708;12710 f4 [32]
000000 ac 0e 82 3d e4 3e e4 bc 5e 5c 3e bd bd aa a4 bd
       0.06350455 -0.02786202 -0.046474807 -0.08040378
000010 50 e0 ad bd 02 2e e2 3b c8 05 13 3d 72 b0 c1 bc
       -0.0849005 0.006902457 0.035894185 -0.023643706
000020 24 f1 5f 3e 8e ef ba bd 50 b9 2e 3e b8 5f 15 3d
       0.21869332 -0.09127723 0.17062879 0.036468238
000030 26 ac 5d 3e d9 6f b5 3b fe 24 69 bd da 95 ec bd
       0.216477 0.005537015 -0.056920044 -0.115520194
000040 58 a9 83 bd 6a 03 99 bd 43 0f 68 bd cc 17 27 3b
       -0.06428784 -0.07471354 -0.05665518 0.0025496362
000050 a0 14 70 be 74 90 b4 bd 14 45 28 3e 50 cb c8 3c
       -0.23445368 -0.08816615 0.16432601 0.02451101
000060 d3 67 a8 bc d6 5d c6 bc 87 4b 10 3c 0e 91 ec 3d
       -0.02055732 -0.024214666 0.00880707 0.115511045
000070 d0 b2 1b bc 70 c4 9e 3c b8 95 9d 3d e4 70 d8 3b
       -0.009503081 0.019380778 0.07694572 0.0066052545

mention_transformer_0/bottleneck_input/norm/add;StatefulPartitionedCall/mention_transformer_0/bottleneck_input/norm/add;sequential_1/dense_3/Tensordot/shape;StatefulPartitionedCall/sequential_1/dense_3/Tensordot/shape;mention_transformer_0/bottleneck_input/norm/mul;StatefulPartitionedCall/mention_transformer_0/bottleneck_input/norm/mul;mention_transformer_0/bottleneck_input/dense/add;StatefulPartitionedCall/mention_transformer_0/bottleneck_input/dense/add;mention_transformer_0/bottleneck_input/dense/einsum/Einsum;StatefulPartitionedCall/mention_transformer_0/bottleneck_input/dense/einsum/Einsum;12810;12812;12814 f4 [32]
000000 ae 97 a6 bd b4 0e 18 3e 53 0e ab bc aa 16 26 3e
       -0.08134399 0.14849359 -0.020880854 0.16219583
000010 eb f4 84 3e 47 f1 0e 3e e3 aa 99 3d ca a6 fb bd
       0.25968108 0.13959228 0.07503297 -0.12287672
000020 17 e6 98 3c 54 26 3f bc f9 bd 84 bc 94 a3 0b 3e
       0.018664403 -0.011666853 -0.016203867 0.13636619
000030 d0 45 89 3c d9 46 c6 bd 0b d9 19 bd 98 4c 7b 3d
       0.016756922 -0.09681482 -0.037560504 0.061352342
000040 69 bf 1c be 44 ee 2a be b8 ba 02 3e a5 f5 84 bd
       -0.15307392 -0.16692454 0.1276654 -0.064921655
000050 49 33 15 be 22 f6 68 3d 0e e6 33 be 81 1c d6 3d
       -0.14570345 0.056875356 -0.17568228 0.104546554
000060 f0 0f ff 3c c4 e5 94 bd 49 d0 02 3e 0a af 26 bd
       0.03113553 -0.07270387 0.12774767 -0.040694274
000070 ba 99 2f 3e 6a 48 7b bd 69 3e 79 3e 2c c2 bb bd
       0.17148486 -0.061348356 0.24340214 -0.09167895

mention_transformer_1/bottleneck_input/norm/add;StatefulPartitionedCall/mention_transformer_1/bottleneck_input/norm/add;sequential_1/dense_3/Tensordot/shape;StatefulPartitionedCall/sequential_1/dense_3/Tensordot/shape;mention_transformer_1/bottleneck_input/norm/mul;StatefulPartitionedCall/mention_transformer_1/bottleneck_input/norm/mul;mention_transformer_1/bottleneck_input/dense/add;StatefulPartitionedCall/mention_transformer_1/bottleneck_input/dense/add;mention_transformer_1/bottleneck_input/dense/einsum/Einsum;StatefulPartitionedCall/mention_transformer_1/bottleneck_input/dense/einsum/Einsum;12902;12904;12906 f4 [32]
000000 29 69 30 3e 8c 42 0d be c5 a5 81 be d3 fa 25 be
       0.17227615 -0.13794917 -0.25321785 -0.16208963
000010 29 ba 21 3e 6f 66 e8 3d dc c9 1f be b1 b0 ac bd
       0.1579367 0.11347663 -0.15604347 -0.08432139
000020 00 78 98 be 13 d1 77 3d 27 c3 75 3d 89 a6 79 3d
       -0.29779053 0.060502123 0.060000565 0.060949836
000030 c6 cf 0e be f2 65 45 3d 04 e3 07 3e d2 49 26 3e
       -0.13946447 0.048192926 0.13270193 0.16239098
000040 15 31 8a bc 06 8e 18 be 8a 3e 64 be 4c ad ae 3d
       -0.016869107 -0.14897928 -0.22289482 0.085291475
000050 a6 2c 2b bd 56 a9 39 3e f4 11 77 3d 56 8f c9 3c
       -0.041790627 0.18131003 0.060319856 0.02460448
000060 35 86 e0 3d da 5b 9c 3d 42 43 4b 3d 86 d9 0d be
       0.10963098 0.07634707 0.04962469 -0.1385251
000070 77 d8 5e bc 16 29 4c be f4 93 cc 3d 2d 5d dc bd
       -0.013601414 -0.19937548 0.09989157 -0.10759959

context_transformer_0/attention/value/add;StatefulPartitionedCall/context_transformer_0/attention/value/add;context_transformer_0/attention/value/einsum/Einsum;StatefulPartitionedCall/context_transformer_0/attention/value/einsum/Einsum;12638 f4 [32]
000000 31 43 bc 3c 16 7c fd 3c 57 06 67 bc 7b 0f 26 3d
       0.022981258 0.030942958 -0.014100633 0.040542107
000010 e7 9f 97 bd b6 d0 d3 bc 50 ce 39 3d 7f 34 40 bd
       -0.07403546 -0.025856357 0.04536277 -0.046925064
000020 08 62 8b bd b0 bd 95 bd 4c 5b 0c 3d e2 b3 67 3c
       -0.06805807 -0.07311571 0.034266755 0.0141420085
000030 7e 17 7e bd d6 6d e3 3c 7b 5a 02 3c 91 c7 4f 3d
       -0.062034123 0.027762335 0.007956143 0.05072743
000040 73 e7 00 3c e7 c7 7d bc 6d b9 4f 3c f6 af 44 bd
       0.007867682 -0.015489555 0.012678486 -0.048019372
000050 b8 99 8f 3d de d6 b9 bc 33 05 b0 39 41 4a bc bc
       0.070117414 -0.022685464 0.0003357321 -0.022984626
000060 7b d8 8e 3d 7d e2 12 3d 80 66 48 bd b8 e4 10 bc
       0.06974884 0.035860527 -0.048925877 -0.008843593
000070 85 21 58 3d d8 c8 bc 3a 28 7e 8e 3d 27 3e 8f bd
       0.05276634 0.0014403118 0.06957656 -0.069942765

context_transformer_0/bottleneck_input/norm/mul;StatefulPartitionedCall/context_transformer_0/bottleneck_input/norm/mul;context_transformer_0/bottleneck_input/dense/einsum/Einsum;StatefulPartitionedCall/context_transformer_0/bottleneck_input/dense/einsum/Einsum;context_transformer_0/bottleneck_input/dense/add;StatefulPartitionedCall/context_transformer_0/bottleneck_input/dense/add;12614;12616 f4 [32, 32]
000000 94 50 0e bd fe 1e 92 3d 90 09 55 3d d9 b0 19 3e
       -0.034744814 0.071348175 0.052011073 0.15008868
000010 41 a4 9f 3d 13 53 9b 3e 2f cc d1 3d 3a 12 03 3e
       0.07795001 0.30336818 0.10244023 0.12799922
000020 d5 bc 12 3e 73 ea 37 3e 5c 7d 27 3d fd a9 27 bd
       0.14329846 0.17960529 0.040891036 -0.040933598
000030 1e c3 de 3d a2 ae b9 be 88 ec 12 3e 06 b0 4a 3c
       0.108770594 -0.36266047 0.14348042 0.012371069
000040 22 0e ea 3d 56 fe 39 bd b6 fd 03 3e 3a 99 80 bc
       0.11428477 -0.04540857 0.12889752 -0.015698064
000050 ff 5b e0 bd 36 de 28 be f3 81 81 bd 96 c2 55 be
       -0.10955047 -0.16491017 -0.06323614 -0.2087501
000060 f8 a3 b9 bd a3 79 ee bd e3 22 55 3c 97 77 86 3c
       -0.09064478 -0.11644294 0.013008806 0.016414447
000070 fd 3f bb 3c 27 1d 12 3c cd fa 97 bd a2 bb ce bd
       0.02285766 0.008918083 -0.07420883 -0.10094382
000080 c7 ec 3b be a7 0a 01 3f 8c 40 df bd ff 04 de bd
       -0.18352042 0.5040688 -0.10900983 -0.10840797
000090 72 10 61 3e be 48 62 be f5 0d 42 3e 7f d3 3f 3e
       0.2197893 -0.22098061 0.18950637 0.18733023
0000a0 f1 42 34 3e 25 dd 02 bf 6f a6 7e 3e c0 e7 a2 be
       0.17603661 -0.5111869 0.24868177 -0.31817436
0000b0 19 b2 83 bd 9b 39 43 3f 1a 4b 81 bc b6 db 9c bd
       -0.06430454 0.76259774 -0.015782882 -0.07659094
0000c0 1c 50 96 be 60 12 3f 3e b9 db 22 be 53 45 35 bf
       -0.29357994 0.18659353 -0.1590413 -0.70808905
0000d0 af 42 95 bc 4e 81 9f 3e dd 8d de bb 86 ea 97 bd
       -0.018220274 0.3115334 -0.0067918138 -0.07417779
0000e0 39 61 b7 3e 47 3b a8 bd 41 92 d8 be 4d 46 79 be
       0.35816363 -0.08214431 -0.42299083 -0.24343224
0000f0 d5 1b 99 3c 6c 72 7a be 3a e1 11 be 2f 66 3a be
       0.01869003 -0.24457711 -0.14246073 -0.18203042
000100 9c f4 a9 3d 78 14 c5 3d a1 19 ec 3c 45 55 17 3e
       0.08298609 0.09623045 0.028820815 0.14778621
000110 91 29 ea bb 29 49 cb 3d f9 b7 2a bd 9a 61 cf bd
       -0.0071460684 0.099260636 -0.041679356 -0.10126038
000120 c3 c2 0e 3e 0f 5f cf 3d 0e e2 54 3b a8 b6 8b bc
       0.13941483 0.10125553 0.0032483372 -0.01705487
000130 81 a3 7e 3e f0 00 ac bd 5d 58 f4 3d 62 ef da bd
       0.2486706 -0.08398616 0.119309165 -0.1069019
000140 72 a6 d3 bd 76 0c 9b bd 17 ba 45 bb d4 84 86 3e
       -0.10334481 -0.07570736 -0.0030170733 0.26273215
000150 09 64 6f 3e fa f4 27 3d 8b 61 c6 3d 4f df 94 3d
       0.23378004 0.041005112 0.096865736 0.07269155
000160 59 70 51 be 63 ad fa bd f4 15 e4 3c 5f 35 e2 bb
       -0.20453013 -0.12240102 0.0278425 -0.006903335
000170 0a b9 b5 bd 7d 77 b9 3b 07 3a 49 be 7f 13 81 3d
       -0.08873184 0.005659996 -0.19651042 0.06302547
000180 90 0f c5 3c d2 44 2f 3e c5 bd 0e be 65 b3 5b 3e
       0.024055272 0.17116097 -0.13939579 0.21455152
000190 d8 5c f8 3e 34 94 17 be c1 49 ab be 7c 5c 16 3d
       0.48508334 -0.14802629 -0.33454707 0.036709294
0001a0 c8 6b f1 3d 63 f0 c2 3c a0 be 54 3e db 6c bc 3e
       0.11788136 0.023796266 0.20775843 0.368018
0001b0 74 88 80 3d 8e 4d 9d be 2a 09 91 3e bc 5e 4d 3e
       0.06276026 -0.30723232 0.28327304 0.2005567
0001c0 7e 4c 8e bd 1b ce b2 3d c6 1a 20 3e 00 6f d7 be
       -0.069481835 0.08730718 0.15635213 -0.42076874
0001d0 52 39 e4 3a 46 6c 53 3e c4 50 2d bd 42 24 cd 3d
       0.0017412102 0.20646772 -0.042313352 0.10016681
0001e0 93 83 db 3e 72 7c 09 3e 69 9e 7e ba bc 1d 76 be
       0.4287382 0.13426378 -0.0009712936 -0.2403478
0001f0 f7 93 23 bf 76 11 2e be 58 65 8a be 4d a3 3a 3c
       -0.6389765 -0.16998848 -0.27030444 0.011391473
000200 30 ef 2e 3d f5 19 96 3b 35 01 1f 3e 7f 66 11 be
       0.042708576 0.004580731 0.15527804 -0.14199255
000210 74 ce 7d 3d b0 14 61 3e fc 29 4f 3c 68 d5 75 bc
       0.061964467 0.21980548 0.012644287 -0.015004493
000220 c3 d1 70 3d 49 94 78 3c 3c 71 c7 bd a3 4e 74 3e
       0.058793794 0.015172073 -0.097383946 0.23858123
000230 74 e2 44 3d 93 2c 7b bd e8 ff 2a be 6c 83 00 bd
       0.048067525 -0.061321806 -0.16699183 -0.031375334
000240 90 82 b7 bc ff 50 69 3d 51 85 23 be ce 3b 5c bd
       -0.022401124 0.05696201 -0.15968825 -0.05376797
000250 86 44 0d 3e fa 49 bb bd 41 24 85 bb bd 11 fe bd
       0.13795671 -0.09144969 -0.0040631597 -0.12405727
000260 16 34 0e be 90 4e 23 bd 6e f8 b3 3c 68 83 87 3d
       -0.13887057 -0.039869845 0.021969046 0.06616861
000270 b1 d8 b9 bd aa 10 1f be 2a 55 d0 bd 12 4d 92 bc
       -0.09074534 -0.155337 -0.10172494 -0.017859016
000280 a3 b9 b5 3e 03 a8 2c bd c1 3f 82 3e a9 6c ec 3d
       0.35493192 -0.042152416 0.25439265 0.11544163
000290 a0 1b e5 bd de ff a0 bc e8 fa 51 be 0a 29 34 3d
       -0.1118691 -0.019653257 -0.2050587 0.04398445
0002a0 1b 19 29 be 5c d0 89 3e d1 28 e6 3c 5e 4a 85 3e
       -0.16513483 0.26916778 0.028095635 0.260333
0002b0 44 1b 8f bd 4c 8d 5c 3e 79 e6 3e be 31 58 4f be
       -0.069876224 0.21538275 -0.18642606 -0.20248486
0002c0 29 da 13 3e 35 35 a0 bd 7f e2 97 3e 8d 27 79 bb
       0.1443869 -0.078226484 0.2966499 -0.003801796
0002d0 79 af de bd 5b 80 61 3e a7 da f2 3c 99 b7 89 bd
       -0.108733125 0.2202162 0.029645277 -0.067244716
0002e0 57 36 da bc 39 0d 71 3e 7b 30 4c 3e b9 7b 0d bd
       -0.02663724 0.235402 0.19940369 -0.03454182
0002f0 ec b5 aa be 51 cf fa 3d 30 fa 8c 3d d7 94 ff bd
       -0.3334192 0.12246574 0.06883657 -0.12479561
000300 67 9c d8 bd 22 46 7c bd f5 72 3a 3e 67 df 34 3d
       -0.105767064 -0.06159032 0.18207915 0.044158366
000310 c2 49 fc 3d 3f a6 6b 3d c2 68 6c 3d 08 b0 a5 3d
       0.12318756 0.05753159 0.057717092 0.08090216
000320 8a 8f 5f bd d6 d7 5e 3e f7 82 bb bd b0 01 c6 3b
       -0.05458025 0.21762022 -0.09155839 0.0060426816
000330 4b ad c0 3c c7 47 6f be 37 06 66 3d 28 9f 86 3d
       0.023520133 -0.23367225 0.05615827 0.065733254
000340 1b 3f 8c bd 7c eb 4b 3d b6 9d 08 3c 7e 65 f8 bd
       -0.06847974 0.049785122 0.0083383825 -0.12128733
000350 6f 4e 60 3e 2b b7 41 bd 07 7e 92 bd a4 5e 17 be
       0.2190492 -0.047293823 -0.07152944 -0.14782196
000360 b8 76 aa 3d d2 e3 88 be ae ce 1b 3d 45 8a d4 3d
       0.08323425 -0.26736313 0.038038902 0.10377935
000370 2b 41 ce 3d 40 f8 14 bc ad 6c 8f bd 11 4a 19 bc
       0.100710236 -0.009092391 -0.0700315 -0.009356038
000380 18 47 16 be ea 06 73 be e0 2a 08 3e 9b c2 3e be
       -0.14675558 -0.23733106 0.13297606 -0.18628924
000390 02 79 e5 3b f2 9c e1 bb 5d c8 87 be c6 86 fe bd
       0.0070029506 -0.0068851644 -0.26520053 -0.1242805
0003a0 fb 93 3c 3e 9b 9a 46 be 66 5d 35 bc ad 3f 12 3f
       0.18415825 -0.19394915 -0.011069631 0.5712841
0003b0 3b b3 2a 3e 8c 17 40 bf bb d2 1c 3e 6a 87 03 3d
       0.16669933 -0.7503593 0.15314762 0.032111563
0003c0 70 46 47 3c 2e 5c 7e 3e 09 97 2d 3d ac 49 f4 3e
       0.01216279 0.24839851 0.042380366 0.47712457
0003d0 e9 c8 db 3d eb 03 06 bc 14 65 1d 3c db fb ac 3e
       0.1073168 -0.008179645 0.009606618 0.337859
0003e0 58 77 b7 3c 3e 2d 5c be 31 cb 2a 3f 08 2c 8e 3e
       0.022395775 -0.21501634 0.66716295 0.27767968
0003f0 39 5f 41 be 01 ec e4 3d 71 f9 00 bf 51 63 f7 3e
       -0.18883981 0.11177827 -0.5038062 0.4831796

context_transformer_1/attention/value/add;StatefulPartitionedCall/context_transformer_1/attention/value/add;context_transformer_0/attention/value/einsum/Einsum;StatefulPartitionedCall/context_transformer_0/attention/value/einsum/Einsum;context_transformer_1/attention/value/einsum/Einsum;StatefulPartitionedCall/context_transformer_1/attention/value/einsum/Einsum;12730 f4 [32]
000000 8a bb de bc 29 3d bd bd f4 5b 66 3d 81 59 74 3c
       -0.027189035 -0.09240181 0.056240037 0.0149139175
000010 62 74 8c bd 02 2f 59 3d da 2f bd 3a 9e 46 2c 3d
       -0.06858136 0.053023346 0.0014433817 0.042059533
000020 1f da ba 3d f6 78 be 3d 4e a4 0f bd 48 01 27 3d
       0.091236345 0.09300415 -0.035068803 0.040772706
000030 74 d2 de bd 82 85 12 bd 09 2b bb 3c a8 2e 83 3d
       -0.108799845 -0.035771854 0.02284767 0.06405383
000040 12 fa a2 bd 20 31 80 bd 95 69 fa 3d 07 27 98 3d
       -0.079578534 -0.0625937 0.122271694 0.07429319
000050 19 b3 ef 3d c9 ae 9d 3c e8 7b 76 bd 6d 28 7c bd
       0.11704082 0.019248383 -0.06017676 -0.06156199
000060 0f 43 1f be 11 6b 64 3c bd fa 9c bc 35 90 a1 3d
       -0.15552925 0.013941542 -0.01916253 0.078888334
000070 32 27 17 3e 67 98 4f bd 5a 76 c1 3c 5e a2 86 bd
       0.14761046 -0.05068245 0.023616005 -0.06573938

context_transformer_1/bottleneck_input/norm/mul;StatefulPartitionedCall/context_transformer_1/bottleneck_input/norm/mul;context_transformer_0/bottleneck_input/dense/einsum/Einsum;StatefulPartitionedCall/context_transformer_0/bottleneck_input/dense/einsum/Einsum;context_transformer_1/bottleneck_input/dense/add;StatefulPartitionedCall/context_transformer_1/bottleneck_input/dense/add;context_transformer_1/bottleneck_input/dense/einsum/Einsum;StatefulPartitionedCall/context_transformer_1/bottleneck_input/dense/einsum/Einsum;12706;12708 f4 [32, 32]
000000 c2 cd df bd 98 97 42 3e 37 ef 39 3e 22 27 14 bc
       -0.10927917 0.19003141 0.1815766 -0.009042533
000010 07 16 82 3e 1a 74 03 3f cc 87 e8 bc 98 f6 d3 be
       0.2540743 0.5134903 -0.028385065 -0.41399074
000020 48 8d 62 be ce 5e 08 3f b1 0e 22 3e 7f a6 1c 3d
       -0.22124207 0.5326966 0.15825917 0.03824472
000030 d0 fa 57 3e 3b e8 2e be e2 88 cc 3e 84 48 14 be
       0.21091771 -0.17080776 0.39948183 -0.14480788
000040 f7 24 2b bd 8f 7d 65 3e 0a ec b1 3c ce 8e 4b 3d
       -0.0417833 0.22411178 0.021718998 0.049696736
000050 0f bc 02 be 16 40 10 3f bf aa 67 bd 11 09 1b be
       -0.12767051 0.5634779 -0.05655932 -0.15140177
000060 2e 63 dc bd 1d 97 52 3e 56 91 89 3e b8 f3 1a 3d
       -0.107611045 0.20565458 0.26868695 0.037830085
000070 a9 8f 01 bd 58 2e 1c be 3d 5a 66 3e 53 53 54 3e
       -0.031631146 -0.15252054 0.2249536 0.2073491
000080 7a 07 6f 3e 68 30 2f bf b5 55 9f be 57 cb 0a 3f
       0.23342696 -0.6843324 -0.31120077 0.5421652
000090 dd 7a 0a be dd dd 80 be e0 c7 da 3e 88 54 58 3c
       -0.13523431 -0.25169268 0.42730618 0.013203748
0000a0 4e 1c 67 be d6 8d 65 3c fd 93 2f 3e e6 db 56 3e
       -0.22569391 0.014010867 0.17146297 0.20982322
0000b0 8a 9d 07 bd a5 9c 9e 3e 66 95 11 3f 75 58 bf be
       -0.033109225 0.30978885 0.5686859 -0.37372175
0000c0 11 cc 3f be 6d ea 49 bd c7 0d 11 3e 71 35 8d 3e
       -0.18730189 -0.04929583 0.14165412 0.27579835
0000d0 cc 21 b2 3d a8 14 0f be 22 73 f7 be 10 3d da 3e
       0.086978525 -0.13972723 -0.48330027 0.42624712
0000e0 63 c2 9e bd ba 82 06 3d c7 41 31 3e c1 9a d7 bc
       -0.0775192 0.032839514 0.17310248 -0.02631891
0000f0 d7 e3 b9 be 76 a1 5c be cc 8c 57 3e 26 18 8d be
       -0.3630664 -0.21545967 0.21049803 -0.27557486
000100 d1 02 0d be 96 dd cf 3d 54 55 16 be c9 c9 61 be
       -0.13770606 0.10149686 -0.14680988 -0.22049631
000110 80 1e 43 be 17 68 34 be 6d 17 b4 bc 17 9d a3 be
       -0.19054604 -0.17617832 -0.021983827 -0.31955788
000120 95 5f af 3e 54 4d 8f be 52 36 02 3e 34 e6 e6 bc
       0.3425261 -0.27988684 0.12716034 -0.028185941
000130 0c 43 71 bd 23 9c 27 3e ea b5 f9 3d 99 c5 b5 3d
       -0.05890183 0.16368155 0.121929005 0.088755794
000140 35 bc be 3d f9 a8 93 bd 2b 0b b5 3c c9 75 48 3e
       0.093132414 -0.07209963 0.022100052 0.19576181
000150 a9 9e 66 be 2a 3c 2b 3c 52 48 1e bd 62 bb 1d 3e
       -0.22521462 0.010451356 -0.03864319 0.15403512
000160 01 ef 00 be ed 00 c2 3d 56 63 2c 3e 70 d7 0a 3e
       -0.12591173 0.09472833 0.16834769 0.13558745
000170 49 97 32 be e4 8f c5 3d 98 d0 83 bd fb 63 95 bc
       -0.17440523 0.096465856 -0.064362705 -0.018236151
000180 3b c3 29 be c1 b9 d6 3e 9e 01 58 be b8 59 dc bd
       -0.16578381 0.41938594 -0.21094367 -0.107593
000190 db 13 c0 be 0f 1d c7 bd 22 22 9a 3d 7e 14 d1 be
       -0.3751515 -0.09722339 0.075260416 -0.40835947
0001a0 d5 35 bb 3e 94 e3 3e 3e d4 3f 42 be 47 58 8b be
       0.36564508 0.18641502 -0.18969661 -0.27215788
0001b0 f9 ca db 3d 61 f7 6c be a2 a5 b6 3c 0c 46 f2 bd
       0.10732073 -0.23141243 0.022295777 -0.11829767
0001c0 b0 b5 b1 3a 45 82 b9 be 03 3d 09 3e 5c 3f a1 bd
       0.0013558175 -0.362322 0.1340218 -0.07873413
0001d0 f1 e0 dd be 9d db 3f bc 14 ab b4 3e 2e 8e 17 be
       -0.4333568 -0.011710075 0.35286772 -0.14800331
0001e0 40 bc ab be ab cb 63 be e8 b5 28 3f 73 fe 09 3d
       -0.3354206 -0.22245662 0.65902567 0.033689927
0001f0 c2 c4 c6 3d 40 71 0c 3e c1 5c 0b be d8 1c 90 3d
       0.09705497 0.13715076 -0.13609602 0.070367515
000200 dd 2a a7 be fc 92 15 3d 67 45 60 be e0 2d a2 bd
       -0.3264989 0.03651713 -0.21901475 -0.07918906
000210 fb ba 74 3e a1 8b ab 39 28 06 a6 bd aa 2b 47 3d
       0.23899452 0.00032719693 -0.08106643 0.048625626
000220 c8 6b 60 be f1 2d c1 3e bc 4b 7e be 50 af 30 3e
       -0.21916115 0.37730363 -0.24833578 0.17254376
000230 f7 43 5c be e7 61 be be 42 d7 de bd d6 c4 c5 bd
       -0.21510302 -0.3718407 -0.10880901 -0.09656684
000240 4d 9d 05 3e bd aa c4 bd f0 83 a4 be 55 da 89 3d
       0.13048287 -0.09602878 -0.3213191 0.06731097
000250 94 2e 34 3e 05 10 45 be 4b 59 3b 3e 2c 7c a6 be
       0.17595893 -0.19244392 0.18295781 -0.3251661
000260 a3 c9 8d 3d de 74 96 bc 1c ea 24 3d d8 2d 2e 3e
       0.06923225 -0.018366273 0.040262327 0.17009676
000270 c7 aa 26 3e e7 ea 4d be dd fb 52 be fa 50 17 bd
       0.16276084 -0.2010914 -0.2060389 -0.03694246
000280 6e f9 06 3e 27 65 01 be 5a dc 8c 3e 22 73 ae 3e
       0.13181087 -0.12636243 0.27511865 0.34072214
000290 28 15 f4 bc cd ea ca 3e 3a ca 81 bd e4 e1 a2 3c
       -0.029795244 0.39632264 -0.063374 0.019883104
0002a0 86 ae b8 be a2 c2 7e bc 54 a1 ac 3d f8 73 3c bd
       -0.3607065 -0.015549334 0.084292084 -0.046009034
0002b0 bc 43 8c 3e a1 3d 1d 3e f3 99 8f 3d 48 14 52 be
       0.27395427 0.15355541 0.07011785 -0.20515549
0002c0 1e f0 89 be c5 20 b1 3d f6 b2 81 3d f8 44 b7 be
       -0.26941007 0.086488284 0.06332962 -0.35794806
0002d0 17 43 6c bd e1 1a 4d be 9d 0e 16 3d c5 db 85 be
       -0.05768117 -0.20029785 0.03663503 -0.26144233
0002e0 82 56 aa 3e 36 dd 48 bc 6e eb ab 3c 99 f4 a3 3c
       0.33269125 -0.012259772 0.020986285 0.020014094
0002f0 b9 9d b0 3d 5d f6 05 bd b7 90 a3 be c6 84 bd 3c
       0.08623833 -0.032705653 -0.31946346 0.0231346
000300 3a ee b0 3e 70 bd 45 be d0 a3 04 bc 6d b3 07 3d
       0.34556752 -0.19310546 -0.008095697 0.033130098
000310 c6 e4 5c 3d 8c 88 e2 3d 6b 69 99 bc eb 9f 80 3e
       0.053929113 0.110612005 -0.018727025 0.25122008
000320 57 47 1d 3e 00 aa 3f bd 37 d4 83 be 0c 93 9a bd
       0.15359245 -0.046792984 -0.25747845 -0.07547578
000330 a5 77 88 bc c2 14 0a bd cc 42 c5 3e f6 f6 c9 3e
       -0.016658613 -0.033711202 0.38527524 0.3944623
000340 32 c0 86 3e 0c 8d 9b 3d 9f 8e 85 bc 96 f3 d9 bd
       0.26318508 0.07595262 -0.016303359 -0.106421635
000350 94 d2 2d 3e dc 54 d7 3b 4e 99 a5 3c ee 51 47 bb
       0.1697486 0.0065713953 0.020214703 -0.0030413824
000360 df 9f fa bd a0 18 95 3c c8 e7 b2 be 8f ad c0 bc
       -0.12237524 0.018200219 -0.3494246 -0.02352026
000370 1a 22 86 3d 59 59 5f bd 94 8d a5 bc b8 d9 eb 3c
       0.06549473 -0.054528568 -0.020209111 0.02879034
000380 ba 1b dd bd 13 07 23 bf 46 84 f8 3a 0c 65 8a bd
       -0.10796304 -0.6368267 0.0018960319 -0.067575544
000390 7f 1a 79 3e 8c e1 00 bf 1b 4d 80 be b7 95 74 3d
       0.24326514 -0.5034416 -0.25058827 0.05971309
0003a0 75 16 bd 3e 45 e3 91 3e 37 de 98 3e d1 ad 84 3d
       0.36931196 0.28493705 0.29857036 0.06478465
0003b0 70 74 25 3e cb 3c 9d 3e e4 f9 bd 3d 34 8a d1 be
       0.16157699 0.30710444 0.092761785 -0.40925753
0003c0 b1 3b f8 be 5e eb c8 3e be f1 85 bd 88 29 51 bd
       -0.4848304 0.3924207 -0.06540249 -0.051064998
0003d0 a2 57 ae 3e 5b 71 a1 3e 3b 22 96 be 0a fe e0 bd
       0.34051234 0.31531796 -0.2932299 -0.10985954
0003e0 18 82 8f 3c b7 57 ca 3d 99 72 9d be 20 14 37 3e
       0.017518088 0.098800115 -0.30751494 0.17878771
0003f0 3b 03 d7 3e 3e 0f ad bd a3 f0 08 3e 05 86 18 be
       0.41994652 -0.08450173 0.13373046 -0.14894874

mention_transformer_0/attention/value/add;StatefulPartitionedCall/mention_transformer_0/attention/value/add;mention_transformer_0/attention/value/einsum/Einsum;StatefulPartitionedCall/mention_transformer_0/attention/value/einsum/Einsum;12834 f4 [32]
000000 92 84 21 3c e0 bd 2c 3d 95 9c 11 be 12 4b a8 3c
       0.009858267 0.042173266 -0.14219888 0.020543609
000010 7d 17 c2 3d bf 7c 28 3e f8 1f 4a 3e db 91 06 3d
       0.09477136 0.16453837 0.19738758 0.032853942
000020 a7 06 a3 3d e7 0c 87 bd ba e2 bd bc 65 d7 40 bc
       0.07960253 -0.06594258 -0.0231794 -0.011770104
000030 74 61 e2 bc ae a0 7b bd 1a 6c ae 3c 55 74 d1 3d
       -0.02763436 -0.061432533 0.021291781 0.10227267
000040 12 0a f0 bd a8 9d 05 3d c2 44 9a 3d f4 96 13 3d
       -0.11720671 0.032621056 0.07532646 0.036032632
000050 f7 a6 10 be ab ed 61 be 72 11 97 3d cc 31 85 3d
       -0.14126192 -0.2206332 0.07376374 0.065036386
000060 bb 2b 87 3e 37 41 12 3e ce 23 a3 be 99 e5 d0 bd
       0.2640055 0.1428269 -0.31863254 -0.10200042
000070 07 58 fa 3d ba af 91 3d fa ba a9 bd 74 22 e3 3e
       0.12223821 0.07113595 -0.08287616 0.44362223

mention_transformer_0/bottleneck_input/norm/mul;StatefulPartitionedCall/mention_transformer_0/bottleneck_input/norm/mul;sequential_1/dense_3/Tensordot/shape;StatefulPartitionedCall/sequential_1/dense_3/Tensordot/shape;mention_transformer_0/bottleneck_input/dense/add;StatefulPartitionedCall/mention_transformer_0/bottleneck_input/dense/add;mention_transformer_0/bottleneck_input/dense/einsum/Einsum;StatefulPartitionedCall/mention_transformer_0/bottleneck_input/dense/einsum/Einsum;12810;12812 f4 [32, 32]
000000 3c da 83 3c 7e 84 28 be 17 37 1f bd c8 19 7d 3e
       0.016095273 -0.16456792 -0.038870897 0.24716866
000010 f3 ea 25 be 9c 7b 5f bd 2b 8c 45 3e d3 3f 47 be
       -0.16202907 -0.054561242 0.19291751 -0.19457941
000020 d6 83 8c be 99 75 49 3d c3 22 2e be 31 76 d1 3d
       -0.27444333 0.049184415 -0.17005448 0.10227621
000030 c9 52 28 be 75 43 6b be a3 36 f3 bc 1d 49 51 bd
       -0.1643783 -0.22974952 -0.029689139 -0.051095117
000040 5b 60 c6 3e 4d 41 a3 3e a2 3e 67 be 61 e8 9c 3d
       0.38745388 0.31885758 -0.22582486 0.0766151
000050 9e 90 83 3e fc 4e 62 3e 22 58 d2 bd 1b 95 0a be
       0.25696272 0.22100443 -0.10270716 -0.13533442
000060 a4 f8 bf bd 07 1e bc 3d 85 88 82 3e ad bc 5d 3e
       -0.09373596 0.09185415 0.2549478 0.21654005
000070 cf 67 18 3d f8 22 bc be 47 c1 d6 3e 1d f3 48 3d
       0.037208375 -0.3674543 0.41944334 0.049059976
000080 7b 1f ae bb 15 56 2a be 8b a1 3a bd cd 97 84 be
       -0.0053138114 -0.166344 -0.045564216 -0.25897065
000090 ea 9f 2d bf ab c3 ba 3e d6 b9 71 be 08 aa db be
       -0.67822134 0.36477408 -0.23606047 -0.4290316
0000a0 49 60 4c be 08 5b ad 3d bb 56 f6 3d 68 53 dc be
       -0.19958605 0.084646285 0.12028261 -0.43032384
0000b0 fd 4b 58 bd eb 91 52 3d b1 2c 4c 3e 2f 8c b8 3e
       -0.052806843 0.05140869 0.19938923 0.36044452
0000c0 b9 2c 49 be 50 ef 2b 3d c6 da 77 bd 2b 9a 9b be
       -0.19645967 0.041976273 -0.060511373 -0.30391058
0000d0 a1 a3 d2 bd a1 88 6b 3e 22 5f bf 3c 85 a2 97 3d
       -0.10285116 0.23001339 0.023360793 0.07404045
0000e0 3f c3 65 bc ea a3 02 be 71 17 83 be 10 0d 0f bd
       -0.014023601 -0.12757841 -0.25603822 -0.034924567
0000f0 6e 56 8f 3e 91 3a 5b 3e e9 a1 7f bd a0 e4 37 be
       0.27995628 0.2140906 -0.06241027 -0.17958307
000100 86 74 d4 3b b4 64 99 3e 5f 54 10 3c 0a ea f7 3d
       0.0064836172 0.29959643 0.008809178 0.12105186
000110 e3 96 97 3e ce a8 14 bd 25 0a 8d 3e 07 c3 ad 3e
       0.29607305 -0.036293797 0.27546802 0.33937857
000120 60 94 ac bd ca 57 cb bd 44 c4 77 be 97 93 d0 3d
       -0.08426738 -0.09928854 -0.24195963 0.101844005
000130 8c 0e 60 3e 5f 39 3d 37 be 8d c1 be 7c 6b 0d 3e
       0.21880549 1.1278636e-05 -0.37803453 0.13810533
000140 25 54 aa 3c 28 28 d7 3d b8 cd 42 3e e7 f7 30 3e
       0.020792076 0.10505706 0.19023788 0.17282067
000150 2a 63 3e 3c d4 4c 1f be de 89 19 3d 91 5c 33 3e
       0.011620322 -0.15556651 0.037484996 0.1751578
000160 a9 46 6c be fd 3f 20 3d b8 41 48 3e a1 57 01 3f
       -0.2307383 0.039123524 0.1955632 0.50524336
000170 bc 50 18 bd 1c 3f bb be 68 64 11 3f bc 45 92 3d
       -0.03718637 -0.36571586 0.5679383 0.07142207
000180 59 3a 3a 39 d9 19 a8 be 54 bf 5b bd ef 1a 89 ba
       0.00017760078 -0.3283222 -0.05364926 -0.0010460297
000190 b8 7c d3 3e 6e fa b5 be b6 11 83 3c c4 96 89 3e
       0.4130609 -0.35542625 0.015999656 0.26872838
0001a0 52 46 c3 3e 96 24 31 3e 2a 25 07 3f 13 b3 d1 3d
       0.38139588 0.17299113 0.5279108 0.10239234
0001b0 fc 8c 35 3e a4 43 d3 3d 26 b6 68 be 56 d5 4a 3d
       0.17729563 0.10315636 -0.22725734 0.04951986
0001c0 cd 80 cd 3e d0 43 1e 3e bc d3 ec 3e e8 58 94 b8
       0.4013733 0.15455556 0.4625529 -7.07375e-05
0001d0 99 a2 7f be bf f1 63 be a0 26 c0 bd 5f 4f 13 3d
       -0.2496437 -0.22260188 -0.09382367 0.035964366
0001e0 19 cb 1c 3f c2 88 ce 3e 62 9a 45 3d e9 ce 68 bd
       0.612474 0.40338713 0.048242934 -0.05683795
0001f0 5f e9 57 be d3 d1 7d 3e 79 ed e1 3d ec b2 f2 bd
       -0.21085118 0.24787073 0.110316224 -0.11850533
000200 44 ba 9e bd 02 cd f0 bb a1 ba 1a bd 6b b1 8d 3e
       -0.07750371 -0.0073486576 -0.03777564 0.27674422
000210 c5 ee 02 3d 7d 75 04 be 9e c0 09 be 4c 50 86 bd
       0.03196599 -0.12935443 -0.13452384 -0.06558284
000220 bc e6 12 3e 34 d1 ea bc 02 2f 99 3e d6 2a 7c bd
       0.1434583 -0.028664209 0.29918677 -0.06156429
000230 84 a1 31 3c 79 dc 91 bd 84 3d 19 3d 1e 32 86 3d
       0.010841731 -0.0712213 0.03741218 0.06552528
000240 36 03 1e 3c 27 00 98 3d 24 41 ed 3d 6f 17 9f be
       0.00964432 0.07421904 0.1158469 -0.31072566
000250 e6 d6 28 be ca da 78 3e d6 2a 42 3d e6 b8 eb 3d
       -0.16488227 0.24302211 0.047404133 0.11509876
000260 83 6d ad 3d ab 4a d7 3d 39 b6 be bd cb c5 65 be
       0.08468153 0.10512289 -0.093121 -0.22438733
000270 95 3c 47 be 1e d4 de 3d db 36 d0 be 12 d9 4c bd
       -0.19456704 0.10880302 -0.4066685 -0.050011702
000280 73 ad 10 3e c9 85 36 3e 50 43 80 b9 0b 6e c8 3e
       0.14128666 0.17824472 -0.00024464214 0.39146456
000290 af 0b 49 3d 2a db 4d be 08 94 2b 3e a0 76 16 be
       0.049083408 -0.20103136 0.16755688 -0.1469369
0002a0 c5 d0 18 3f 86 76 96 be 45 8c 13 bf 3d b3 c5 3d
       0.5969356 -0.293873 -0.5763591 0.096533276
0002b0 9c 48 44 3d cc 4c a1 bd d5 66 63 be 9f e2 7e 3e
       0.04792081 -0.07875976 -0.22207196 0.24891137
0002c0 f8 2f be bc 17 63 b3 bd 44 40 b0 be 8a a4 b8 3d
       -0.023216233 -0.08759134 -0.3442403 0.09015758
0002d0 15 26 58 be 32 c2 7a 3e d7 bf 05 bd f8 95 37 be
       -0.21108277 0.24488142 -0.032653656 -0.17928302
0002e0 75 b3 62 3e 6a 2a 39 be b0 03 16 3e ba cc 22 bd
       0.2213877 -0.18082586 0.14649844 -0.039746024
0002f0 4b 89 03 3e 71 43 c6 3e 8b db 8c be 31 ad b6 bc
       0.12845342 0.3872333 -0.27511248 -0.022299381
000300 a9 22 8d 3d 72 f8 d3 3d 1e d6 3e 3e 89 bc 0a 3d
       0.068913765 0.103501216 0.18636367 0.033871207
000310 ed 5a 9d 3d c2 dd 23 3e d3 5f c9 be a5 03 29 bd
       0.07683358 0.16002563 -0.3933092 -0.04126324
000320 0c 3d a3 bd fb 29 7e be b7 e8 ef bd be aa d3 bd
       -0.07970628 -0.24820702 -0.11714309 -0.10335301
000330 c6 82 66 3e ef 54 06 be 71 dc b7 bd 74 0b 75 3e
       0.22510824 -0.13118337 -0.08977593 0.2393015
000340 3c ff 28 be 29 6f e9 be 7a e0 ca 3d db be 86 be
       -0.16503614 -0.4559262 0.09906097 -0.26317486
000350 83 b1 2e be 8a 17 c3 3d a1 18 2b bd ac a0 09 3e
       -0.17059903 0.09525974 -0.041771535 0.13440198
000360 77 59 4d 3e dc d2 d8 3d 66 2e a5 be 44 33 21 bc
       0.2005366 0.10587093 -0.32261962 -0.009838883
000370 cd 46 82 3d 2c 8f a8 3d 23 96 2c be 4d c4 7d 3d
       0.063611604 0.08230433 -0.16854148 0.061954785
000380 dc 0b 87 be 68 94 fa 3d 90 2a 9a 3d f0 c3 84 3e
       -0.26376235 0.122353375 0.075276494 0.25930738
000390 e8 ae 72 bd ce b6 99 bc cd 40 b1 be 1c ff a0 be
       -0.059248835 -0.018763926 -0.34619752 -0.31444633
0003a0 ad a9 57 3e d1 53 9c 3d 1e 23 91 3c 34 2c bf 3d
       0.2106082 0.07633174 0.01771694 0.09334603
0003b0 5f 83 10 3d cf d4 5b bd 55 83 15 3c 13 9c 5c be
       0.035281535 -0.053669747 0.00912555 -0.21543913
0003c0 8c be 1c 3e 1c 0f 08 bf 54 d7 ac bd c2 8f 97 3c
       0.15307063 -0.53148055 -0.08439508 0.018501166
0003d0 52 a7 17 be 43 2b 00 be 25 bd 1a 3d 46 4a 9a 3e
       -0.14809921 -0.12516503 0.03777804 0.3013479
0003e0 a3 60 41 3e c6 ec 29 3e 05 5a 4f bd 24 ef 4d be
       0.1888452 0.16594228 -0.05062296 -0.20110756
0003f0 57 e2 c2 be 5f 45 82 3d 73 f5 95 be 2d 78 36 bd
       -0.3806331 0.06360888 -0.29288825 -0.044548202

mention_transformer_1/attention/value/add;StatefulPartitionedCall/mention_transformer_1/attention/value/add;mention_transformer_0/attention/value/einsum/Einsum;StatefulPartitionedCall/mention_transformer_0/attention/value/einsum/Einsum;mention_transformer_1/attention/value/einsum/Einsum;StatefulPartitionedCall/mention_transformer_1/attention/value/einsum/Einsum;12926 f4 [32]
000000 14 a7 a5 bd b0 f8 01 be 4a 56 84 bd c9 df cf 3d
       -0.08088508 -0.12692523 -0.06461771 0.101501055
000010 99 8d 4c 3e 6c dc 0a bd d1 21 a9 bd ea 73 7a 3d
       0.1997589 -0.033901617 -0.08258403 0.0611457
000020 e1 c0 93 bc 63 fc 56 3e b5 55 8a 3e 94 ce 0d be
       -0.018036308 0.20994715 0.27018514 -0.13848335
000030 bc 82 62 3e e6 1d 0b 3e cb 9e 70 3e 5f df 00 3e
       0.22120184 0.13585624 0.23498075 0.1258521
000040 25 7b f0 3d a3 24 56 3e 94 ec 14 3e a0 8e 56 3d
       0.11742238 0.20912413 0.14543372 0.05238211
000050 90 58 56 be a6 71 96 3e 01 17 4f bc 62 dc e7 bd
       -0.20932221 0.29383582 -0.012639762 -0.113213316
000060 95 6d 41 be 3e 8e 71 bd fc 35 00 3c 7d 49 32 3e
       -0.18889458 -0.058973543 0.007825371 0.17410846
000070 db 0d 18 be f1 b8 59 3d 96 e3 8f 3e 53 59 92 be
       -0.14849035 0.05315489 0.28103322 -0.28583774

mention_transformer_1/bottleneck_input/norm/mul;StatefulPartitionedCall/mention_transformer_1/bottleneck_input/norm/mul;sequential_1/dense_3/Tensordot/shape;StatefulPartitionedCall/sequential_1/dense_3/Tensordot/shape;mention_transformer_1/bottleneck_input/dense/add;StatefulPartitionedCall/mention_transformer_1/bottleneck_input/dense/add;mention_transformer_1/bottleneck_input/dense/einsum/Einsum;StatefulPartitionedCall/mention_transformer_1/bottleneck_input/dense/einsum/Einsum;12902;12904 f4 [32, 32]
000000 ac bf 26 bf 9a 9d 05 3e 36 0d 83 be cf 72 61 be
       -0.6513622 0.13048401 -0.25596017 -0.22016452
000010 b2 31 80 3e 7c 9c d9 3d 37 4e 3d 3d e9 21 85 ba
       0.25037915 0.1062555 0.04621717 -0.0010157201
000020 a0 5f 62 bd b8 3f c3 bc b7 23 6a be dd fb ed bd
       -0.055266976 -0.023834094 -0.22865187 -0.11620305
000030 3b a3 2f bc 29 8f 95 3d 69 c6 27 3e 71 39 f0 bd
       -0.0107200695 0.07302696 0.16384281 -0.11729706
000040 1d df 7c be 45 32 85 3e 3e 70 bd 3e 59 91 08 be
       -0.24694486 0.26014915 0.36999696 -0.13336696
000050 bc 72 46 3d c8 80 af 3d 2b b3 03 3e 2e c1 06 3e
       0.048449263 0.08569485 0.12861316 0.1315963
000060 1f 96 b4 bd f5 29 b4 bd b9 de 98 3d b7 5a 2c be
       -0.08817696 -0.08797065 0.07464356 -0.1683148
000070 43 ae 28 3e 02 17 78 be 03 66 03 be f0 bf 2c 3e
       0.16472726 -0.24227527 -0.12831883 0.16870093
000080 82 fd 2c be 15 fa 31 3e 01 77 0b be c2 1f 76 bc
       -0.1689358 0.17380555 -0.13619615 -0.01502222
000090 74 fe bc be 4a 95 88 3e 70 90 84 bc 55 2e 85 be
       -0.36912882 0.266764 -0.016182154 -0.2601191
0000a0 9e 2f 8b 3d 09 d4 de bd 27 22 f0 be 0c 9c 68 bd
       0.06796192 -0.10880286 -0.46901056 -0.056789443
0000b0 99 52 71 3e 85 74 0f 3e 49 c9 71 bd 78 f1 a9 be
       0.23566665 0.14009292 -0.05902985 -0.3319204
0000c0 09 07 92 3e 45 ff 99 3d 9c 62 d6 bc 1a f9 7a bc
       0.28520992 0.07519392 -0.026170067 -0.0153181795
0000d0 d2 6e 9c 3c d9 25 3e be 9e 9d a1 3e 3d 58 90 bc
       0.019095812 -0.18569125 0.31565565 -0.0176202
0000e0 57 c7 b4 3d cf bb 7d 3e a4 f1 29 be ad d6 04 3e
       0.088270836 0.24778675 -0.16596085 0.12972517
0000f0 ab cc b3 3e 34 f5 b1 3c 99 44 cf bd 56 9d 3a bd
       0.35117087 0.021723367 -0.10120506 -0.045560203
000100 81 02 2d 3e a1 d6 bd bc 8b 49 48 3c 0c 74 a7 3e
       0.16895486 -0.023173632 0.012224565 0.32705724
000110 cb 17 09 be 6c 7b 51 be 45 29 62 3e 3e 33 93 3e
       -0.13387983 -0.20457238 0.22086056 0.28750032
000120 75 4e 0a bd f7 81 71 3e 93 7d 70 3e d5 d2 06 3e
       -0.03376623 0.23584734 0.23485403 0.13166364
000130 80 cc f2 bc 61 90 ca 3d 12 2f 24 3d be d2 56 be
       -0.029638529 0.09890819 0.040083952 -0.2097883
000140 e8 4a bf bd ce 0d 3a be ca 7a 28 3d 18 75 81 3d
       -0.09340459 -0.18169329 0.041132726 0.06321162
000150 d2 7c 1b be b1 16 c8 be 1a 5e 1b be a1 28 1b be
       -0.15184334 -0.39079812 -0.15172616 -0.15152217
000160 5d ea 05 3d 75 09 54 be 66 c0 99 3e 99 61 3a bd
       0.03269421 -0.20706733 0.300296 -0.045503233
000170 0e 7d 8e be 4a 0d b9 bd 37 b1 1e 3d c1 44 10 bd
       -0.27829784 -0.09035738 0.038743224 -0.03522182
000180 55 16 86 3e 73 d7 17 3e c9 b0 8b bd 37 3a 8c bc
       0.26188913 0.14828281 -0.068208285 -0.017117603
000190 04 f2 8e bd f1 51 1f 3e ab 31 1d 3e 00 c0 74 be
       -0.069797546 0.15558602 0.15350978 -0.23901367
0001a0 36 ba de bd 0e 1d 23 be 72 8d 00 bf 64 e4 51 be
       -0.10875361 -0.15929052 -0.5021583 -0.2049728
0001b0 95 64 34 be 9c ae d2 be ea cd 21 3d 65 53 29 be
       -0.17616494 -0.4114884 0.039503016 -0.16535719
0001c0 af 11 32 be f0 2e 0a 3b 5d 70 b8 be 88 0d fb bc
       -0.17389558 0.0021085106 -0.36023226 -0.0306461
0001d0 ef 01 af 3d 8f da 17 3f 60 17 50 3d 9a 3f d9 3d
       0.08545291 0.5931787 0.050803542 0.10607834
0001e0 b4 74 2f be b1 11 a0 3d 37 6b 88 bb 52 51 3c bd
       -0.17134362 0.07815874 -0.0041631716 -0.04597599
0001f0 72 18 44 bd a6 a4 02 3c a7 a9 28 bb ad 4f f9 3c
       -0.047874875 0.007973826 -0.0025735886 0.0304335
000200 dd ab 2c 3e fa 29 c2 bd ee a4 e7 bd 1b 6a de 3c
       0.16862436 -0.09480663 -0.11310755 0.027150204
000210 ca e3 92 bd d6 7d 0d be 12 7a 64 3e 4f 43 05 3e
       -0.071723536 -0.13817534 0.22312191 0.13013957
000220 81 de 81 bd 50 b3 e8 bd ba f6 d2 3c 3a a1 1a be
       -0.063412674 -0.11362326 0.025752414 -0.15100566
000230 34 98 72 3c 2a a0 31 3f c5 60 af 3d 20 ab 4c 3d
       0.014806796 0.69385016 0.08563379 0.049967885
000240 d5 67 03 3e d1 09 6f 3d 61 53 e9 bd 2a b9 7f be
       0.12832578 0.05835897 -0.113928564 -0.24972978
000250 bb 4d ec 3d c5 98 e8 be 8b c8 34 3f 13 b6 7c 3d
       0.115382634 -0.45429054 0.70618504 0.061697077
000260 aa dd 1d 3c 25 a7 4b 3e 56 ac 4a 3e 69 e6 08 bd
       0.009635368 0.1988798 0.19792303 -0.03342286
000270 d6 45 59 3e b5 9f 93 3d 19 4b 3e bd f8 15 50 bb
       0.21218047 0.07208196 -0.046458337 -0.0031751376
000280 e9 22 ba be 95 78 66 3e 0d b5 fd 3d fc 2c 90 be
       -0.3635476 0.22506936 0.12388048 -0.2815932
000290 fb f4 9a 3e cd ea a2 3e c1 6e 10 be 6f 93 fd bd
       0.3026503 0.31819764 -0.1410475 -0.12381636
0002a0 7a 16 fe 3d 99 94 36 bd 1e 13 ab 3d a9 2c 81 be
       0.12406631 -0.044575308 0.08353256 -0.25229385
0002b0 15 31 dd 3d 7f 8a 24 be 85 e6 1d be d9 fe 8c 3e
       0.10800377 -0.16068457 -0.15419967 0.27538183
0002c0 bb 8b fd bc 32 0d 54 3d 44 5c 36 3e 9e d6 83 3e
       -0.030950418 0.051770397 0.17808634 0.25749677
0002d0 83 0e d8 3c a1 04 bc 3d 09 e2 f3 3d e8 b6 3e 3c
       0.026374107 0.091805704 0.11908347 0.011640288
0002e0 37 f6 d4 3d 0b 1b 9f bd 49 de 7a be da 4f 6d 3e
       0.10398524 -0.0776883 -0.24498858 0.23174992
0002f0 53 c1 51 3d 20 74 86 3d 29 bc 30 bd 1b e5 84 3c
       0.05120976 0.06565118 -0.043148194 0.016222527
000300 82 67 d5 3d ff 28 8a 3e 20 ec 40 bd 79 89 f4 bd
       0.10420133 0.26984403 -0.047100186 -0.11940283
000310 d6 c9 89 3e 78 fe 94 3e 16 bb c9 be 12 92 85 3d
       0.269118 0.29100394 -0.39400548 0.06522001
000320 42 a8 95 bc 79 7d 09 be 93 ee 74 be 95 fb a8 bd
       -0.018268708 -0.1342677 -0.23919134 -0.082511105
000330 fa da 50 be 65 5e b4 be 89 9c 8e 3d f9 41 1a be
       -0.20396033 -0.35228267 0.069634505 -0.15064229
000340 aa 34 5d be ef 9a f4 bd 2d b6 8f be 14 ca 06 be
       -0.21602121 -0.11943614 -0.28068677 -0.13163024
000350 59 f2 4f 3e d4 4b 67 3d 02 82 8f be d8 fe 6c 3e
       0.20307292 0.0564688 -0.28028876 0.2314409
000360 e5 bb cd 3d c2 74 cc bc 38 44 94 be 65 78 bf bd
       0.10045604 -0.024958018 -0.28958297 -0.09349135
000370 df 9f f0 3b 5f 85 0c 3c 5f 5e 8e bc 3b 78 4f 3e
       0.007343277 0.00857672 -0.017378984 0.20260708
000380 f2 a3 2d be 50 08 a9 bd fc 4a 04 3e e1 b7 38 be
       -0.16957071 -0.082535386 0.1291923 -0.18038894
000390 bb 6d 1d 3e d3 0f e8 3a 7c 50 33 3e fd 5e 73 bd
       0.1537389 0.0017704911 0.17511171 -0.05941676
0003a0 a2 48 cb 3c 7e 18 dc 3d 2b 53 75 be dd e4 25 3e
       0.024814907 0.10746859 -0.23957507 0.16200586
0003b0 b1 1f 34 be 9b 82 24 3c 69 29 10 be 77 31 71 3c
       -0.17590214 0.010040904 -0.14078297 0.014721266
0003c0 1f a8 0e bf 75 d2 dd bc 8b ab 68 bd ea cb ce 3e
       -0.5572528 -0.027077893 -0.05680422 0.4038995
0003d0 39 b3 9d bc ae 38 0a 3d 87 12 7b bd 0e 8f 27 be
       -0.0192505 0.03374546 -0.061296966 -0.16363165
0003e0 00 e6 a2 3d b7 e4 64 3e 2f 5d 08 be bb 91 78 bd
       0.07954025 0.22352873 -0.13316797 -0.060685854
0003f0 c9 2f 08 3e e3 97 eb bc a2 bf c3 3a 9a 9a be bd
       0.13299479 -0.028758949 0.001493443 -0.09306832

context_transformer_0/attention/value/einsum/Einsum;StatefulPartitionedCall/context_transformer_0/attention/value/einsum/Einsum3 f4 [32, 32]
000000 47 cd c2 bc 8e ef 10 3e db d8 b6 3d dd 8d 9b be
       -0.023779524 0.14153883 0.08928081 -0.3038167
000010 5d 92 b7 be 25 f5 c3 bd 99 14 f5 bc 1a 14 82 3d
       -0.35853854 -0.09568242 -0.029917048 0.0635149
000020 a6 03 49 be 6e f8 9d 3d 99 18 42 bd 09 33 8e 3d
       -0.19630298 0.077134 -0.04738674 0.06943328
000030 18 be a4 be 82 1c 24 3e d1 56 71 be ef 84 a6 3e
       -0.3217628 0.160265 -0.23568274 0.32523295
000040 a9 1b 04 bf a5 4e d5 3d 88 d0 9b be 12 09 e3 3d
       -0.51604706 0.10415391 -0.30432534 0.110857144
000050 26 97 a0 bd 3d d1 81 be 86 19 d6 bd cc 19 9b 3e
       -0.07841329 -0.2535495 -0.10454087 0.3029312
000060 29 6f b8 be 90 39 ac be 1b af 9a bd ad e9 c5 3d
       -0.36022308 -0.33637667 -0.0755293 0.09663711
000070 1f 58 64 3c 49 e0 4f be b1 d9 e9 3e 7d 8b 4e be
       0.013937025 -0.20300402 0.45673898 -0.20170398
000080 37 0c 91 3d 12 a3 41 3e 99 4c c6 3c 27 29 7b be
       0.07082408 0.18909863 0.024206446 -0.24527417
000090 21 e1 ac be 82 62 07 be bd 89 b3 3d d6 8a 08 3e
       -0.3376551 -0.13221171 0.08766506 0.13334212
0000a0 01 b5 dc bd 23 47 bb 3c 7f a1 11 3d 92 0c 23 3c
       -0.10776711 0.022861069 0.035554405 0.009951727
0000b0 95 6e bb be 39 6c 04 3e 42 4a 22 be 15 46 95 3e
       -0.36607805 0.12931909 -0.1584864 0.2915503
0000c0 8c b2 07 bf 2b e3 1f 3e 4e b6 ab be ee 71 43 3e
       -0.53006816 0.15614001 -0.33537525 0.1908643
0000d0 74 b9 b3 3d b7 b2 40 be 0f c9 6c bd 3d bb 90 3e
       0.08775607 -0.18818174 -0.057808932 0.2826785
0000e0 db b9 92 be be 8a 4e be 82 85 23 bd 5b 53 98 3c
       -0.2865742 -0.20170113 -0.039922245 0.018594434
0000f0 bc 00 8f 3b c0 1b c6 bd ae e4 d8 3e 7f 7e 29 be
       0.004364101 -0.09673262 0.4236197 -0.1655216
000100 b3 d6 cf be 78 46 9f 3e b7 1c 60 be 9a 78 c7 3d
       -0.4059349 0.3110845 -0.21885954 0.097398
000110 d1 f3 08 bf 5d 95 9e 3e 1c b9 0c 3d 93 38 90 3d
       -0.53497034 0.3097333 0.03435622 0.07042041
000120 11 16 bf be 37 71 cb 3e b8 4b 56 be 35 23 8d be
       -0.37321523 0.39734814 -0.20927322 -0.27565923
000130 c9 1f 03 3f be f5 10 bf 89 3a 3b 3e 2e 36 c2 3e
       0.51220375 -0.5662497 0.18284048 0.3793196
000140 2d a1 e0 bd 19 7f 4c 3e 15 a8 f7 3e 66 a6 c4 bc
       -0.10968242 0.19970359 0.48370424 -0.024005126
000150 e5 11 07 3f 09 6d 0f 3e 95 58 81 bd 97 80 8b 3d
       0.5276168 0.14006437 -0.06315724 0.06811636
000160 d0 9d 26 3d e0 d0 3d 3d 26 10 00 bf 5b e9 8e 3d
       0.040677845 0.046341777 -0.5002464 0.06978103
000170 59 13 2e 3f 47 af b3 bd 6c 66 da be b1 bf 34 bc
       0.6799827 -0.08773666 -0.42656267 -0.011032031
000180 33 52 1c 3e 3e d9 42 be a6 17 c8 bd e1 19 2a 3e
       0.15265732 -0.19028184 -0.097701356 0.16611435
000190 b0 2c 9c be c8 36 05 3f a4 31 46 3e 17 a4 90 be
       -0.30502844 0.52036715 0.19354874 -0.2825019
0001a0 74 0d f8 be 83 01 ca 3e 3e 75 c4 bc 9c 7a 75 be
       -0.48447764 0.39454278 -0.023981687 -0.23972553
0001b0 cb d7 97 bd 19 ff aa 3b 53 b1 22 3c 39 3f df 3c
       -0.07414206 0.0052183983 0.009929973 0.027251827
0001c0 75 16 d9 be 8a 48 f8 bc b4 7b 1f bf 1f 80 59 bd
       -0.42399946 -0.030308027 -0.6229813 -0.0531007
0001d0 a8 7c 9c be 20 de 00 3e 3b c7 70 3e ae f0 14 3f
       -0.30563855 0.12584734 0.235135 0.5817975
0001e0 e6 81 1c bf e2 9c fe bd 04 a3 df bd 06 18 15 3e
       -0.6113571 -0.12432267 -0.10919765 0.14559945
0001f0 d0 58 e9 be 9a 92 b8 3d d0 6f 9c bd c6 0e 58 3e
       -0.4557557 0.09012337 -0.07638514 0.21099386
000200 a1 ec f6 be 70 a9 84 3e 52 02 9e 3c f6 ac 31 be
       -0.4822741 0.2591052 0.019288216 -0.17351136
000210 88 ef 00 3f 89 7c e2 be de 7d 2c be cd 0e 93 3d
       0.50365496 -0.44235638 -0.1684489 0.071805574
000220 d0 ea 28 3e 8e 74 e1 3d 93 41 94 be 53 65 b8 3d
       0.16495824 0.11008559 -0.2895628 0.09003701
000230 6f 02 4c 3e 66 cb d5 3d 2c 18 98 3d af 62 61 3e
       0.19922803 0.10439186 0.074264854 0.22010301
000240 f7 f5 3b be c7 6b 8a be 1b 43 04 3f cd b2 80 3e
       -0.18355547 -0.27035353 0.51664895 0.25136414
000250 ca e5 15 3e 5a 29 fb bd 59 6e ea bc 95 69 bc bd
       0.14638439 -0.122637466 -0.028617071 -0.09199826
000260 f3 fd 06 3f 43 5c 50 be 88 4e 1d bf 5c ab 5a 3e
       0.52731246 -0.20347695 -0.61447954 0.21354431
000270 4d c6 0d 3f a4 4a 4e 3e 5e b9 52 be 9e 31 f8 be
       0.5538071 0.2014566 -0.20578524 -0.48475355
000280 df 42 43 3d 97 24 0d be 00 33 7b 39 46 c3 4e 3e
       0.047671195 -0.13783489 0.00023956224 0.20191678
000290 22 2a 86 3e 0a d2 83 3d f1 0a 82 bd 21 0f c0 bd
       0.2620402 0.06436546 -0.06349743 -0.093778856
0002a0 56 43 77 3e c8 1d 10 3d 26 9f 5a bd 88 17 41 bd
       0.2414678 0.03518465 -0.053374432 -0.04714158
0002b0 4a 5e d7 3e a4 88 a9 bd dd be b1 3c 97 ac 94 be
       0.42064124 -0.08278015 0.021697456 -0.29037926
0002c0 bb da d5 3e 62 c5 03 bd 74 d2 55 3e 58 dd d3 be
       0.4176844 -0.03217066 0.20881063 -0.4137981
0002d0 e1 8d cf bd 8f ce 9e 3e d6 4d 78 bc 59 8b 58 be
       -0.10134483 0.31016967 -0.015155276 -0.21146907
0002e0 7d f2 37 3e 93 99 84 3e 2c b9 57 3e 05 4f 06 be
       0.17963596 0.25898418 0.21066731 -0.13116081
0002f0 d5 01 36 bd 6a 22 7c bd 49 1a f7 be c9 e8 f4 3b
       -0.04443534 -0.061556257 -0.4826224 0.007474039
000300 7a b5 55 3e 96 3b 05 3e 73 23 02 3e 18 f9 d4 bc
       0.20870009 0.13011011 0.12708835 -0.025997683
000310 cc 15 df be 76 8d 66 bd 4d 5b 38 3e c5 b4 7d 3e
       -0.43571317 -0.05628725 0.18003578 0.2477599
000320 5a ed e4 bd 9f cc 06 3d 66 ad a6 3d c1 86 da 3c
       -0.11178084 0.032909986 0.08138542 0.026675584
000330 01 9d b6 be b6 77 14 be 18 98 3e 3d 5a a4 2d 3e
       -0.3566666 -0.14498791 0.046531767 0.16957226
000340 84 7b c4 be 4c ad 19 3e 1b e8 b5 bd b9 6f 9d 3e
       -0.38375485 0.15007514 -0.08882161 0.307493
000350 bf 18 8e bb 67 b3 89 be 1a d9 e2 bd b2 f5 93 3e
       -0.004336446 -0.26894686 -0.11076565 0.28898388
000360 88 8d ab be eb bd 02 bd 2f 39 00 bd fd 57 33 3e
       -0.33506417 -0.0319194 -0.031304535 0.17514034
000370 9c ba 1e 3d 86 cd c4 3d ef 1f e5 3e 7b ab ea 3c
       0.038752183 0.09609513 0.44750926 0.028646221
000380 5d b0 b7 3d 65 90 82 3c 11 ca 59 bd 84 ff 07 bd
       0.089691855 0.015937993 -0.05317122 -0.033202663
000390 b6 75 d9 3e 65 f5 5e be 79 26 93 be 73 0f 0a bd
       0.4247262 -0.21773298 -0.2874029 -0.03370614
0003a0 4b b4 b9 3e 00 50 e3 3d 45 0b 5a be cb 9a ea 3d
       0.36270365 0.11099243 -0.21293361 0.11455306
0003b0 fe e1 ba 3e af 40 d9 3d 2a 45 01 be 9d a7 d9 bd
       0.36500543 0.106080405 -0.1262404 -0.10627673
0003c0 94 97 c4 3d 58 81 c1 bc 7b 9d 68 bd fa 7c 00 bf
       0.09599224 -0.023621246 -0.05679081 -0.501907
0003d0 c4 b6 39 be 70 f2 76 3e a6 18 28 be cb 7c e9 bd
       -0.18136126 0.2411592 -0.16415653 -0.114007555
0003e0 a7 46 45 3e e2 3c 96 3e 78 b7 29 3e e9 48 6f be
       0.19265233 0.29343325 0.16573894 -0.23367657
0003f0 a9 13 74 be 3e d5 37 be 7f 9d d6 be b3 87 ae be
       -0.23835625 -0.17952439 -0.41917035 -0.34087905

context_transformer_0/kq_shared_bottleneck/dense/einsum/Einsum;StatefulPartitionedCall/context_transformer_0/kq_shared_bottleneck/dense/einsum/Einsum f4 [32, 32]
000000 e2 bf 16 be e8 20 ce 3d e3 ee 62 3e bb 27 51 3d
       -0.14721635 0.1006487 0.2216144 0.05106328
000010 96 12 43 3c a0 42 86 3b 4d f0 1c be 45 cd 5b be
       0.011906287 0.004097298 -0.15326042 -0.21465023
000020 02 c9 66 3e ca b4 b9 3d 14 81 bb bd 97 ba 1c 3d
       0.22537616 0.09067686 -0.09155479 0.038263883
000030 cd 3c 62 3e f3 13 95 3e 26 62 03 3c 62 73 e5 3d
       0.22093506 0.29116783 0.008019006 0.11203648
000040 a7 82 21 be cb 2c c6 bd 00 03 00 3e 63 98 76 3d
       -0.15772496 -0.09676512 0.12501144 0.06020392
000050 2b e5 e0 bd f8 fd 23 3e 16 6b 92 3e 64 57 82 be
       -0.1098121 0.1601485 0.28597325 -0.254573
000060 12 55 d7 3d 4a 21 4b be 28 48 98 3b 6e 07 bb be
       0.10514273 -0.19836918 0.0046472736 -0.36529106
000070 06 46 0e be 37 92 c7 bc 0b 00 84 bd 23 08 d7 bd
       -0.138939 -0.024361713 -0.06445321 -0.10499599
000080 bc ba 59 bd 65 06 11 3e e7 f9 86 be 07 5b ba 3d
       -0.0531566 0.14162596 -0.26362535 0.09099393
000090 96 89 3b 3e 64 d0 a0 be 2d af 1f bc 47 c4 3f be
       0.18314204 -0.3140899 -0.009746355 -0.18727218
0000a0 cb da 26 bd 75 5d 28 be 43 b6 05 be a8 96 00 3e
       -0.040736 -0.16441901 -0.13057809 0.12557471
0000b0 79 dc 43 3d ed 7e 72 be 98 ad 4f 3e c3 6f d9 bc
       0.04781768 -0.23681231 0.20281065 -0.02654255
0000c0 30 52 46 be 31 d9 c4 bc 34 2e 36 be 22 eb 2f be
       -0.1936729 -0.024029346 -0.17791063 -0.1717954
0000d0 71 b5 96 3e d4 22 2a 3d f9 c0 d3 be f7 d3 98 3d
       0.29435304 0.04153712 -0.41358164 0.07462304
0000e0 47 80 91 bd 97 f8 d0 bd 42 0d be be b6 1d 81 3e
       -0.07104545 -0.10203665 -0.3711949 0.2521798
0000f0 a5 88 4d 3e ec 4e 4a 3d a9 2a 5c 3d a4 f2 93 be
       0.20071657 0.049391672 0.05375162 -0.28896058
000100 e7 c5 2c bd 97 ef be bc 53 a2 8b 3e dd 1c d4 bd
       -0.042180922 -0.023307605 0.2727228 -0.10357068
000110 ef 6a 97 bd d8 e3 e7 3d da c8 f0 bc f4 7b 0f 3e
       -0.07393443 0.113227546 -0.029392648 0.14012128
000120 45 a7 04 3e 3f bf ca 3d 77 17 b2 3d 1e e2 c9 bd
       0.12954433 0.098997585 0.08695882 -0.098575816
000130 f1 f6 01 3d 8a 19 9c 3e 69 ef 03 be 83 90 41 3d
       0.031729642 0.30488235 -0.12884296 0.047256958
000140 ea f5 6b 3d d0 a3 4c be b8 8d 20 3e 41 94 23 3e
       0.05760757 -0.19984365 0.15679061 0.15974523
000150 28 f9 94 be ab 86 b2 3c d4 25 e0 3e 63 54 4b be
       -0.2909634 0.02179273 0.4377886 -0.1985641
000160 4e 43 00 3e 30 1d a4 3d 21 80 96 3e dc 43 c4 be
       0.12525675 0.080133796 0.2939463 -0.38333023
000170 be 56 45 be d1 a9 1e bc 55 2b 2d bd f9 35 cf 3d
       -0.19271371 -0.009684042 -0.042277653 0.10117716
000180 ee 6c 06 3e d8 02 41 be 04 4d 4d 3e bd 77 5d 3e
       0.13127491 -0.18848741 0.2004891 0.21627708
000190 e8 05 e8 bd 52 ac 6b bd ce af 64 be a4 f2 d2 3d
       -0.113292515 -0.057537384 -0.22332689 0.10300186
0001a0 17 b5 17 bc 5a 87 bd 3e f1 73 27 be 6a 76 8b be
       -0.009259484 0.37017328 -0.16352822 -0.2723878
0001b0 ac 4d 84 3e 03 32 4c be ea 40 be 3d ed 06 03 bd
       0.2584051 -0.19940953 0.09289725 -0.031989027
0001c0 29 6c 11 be dd 29 6a 3e a1 1c 2b 3e 65 1a ad 3c
       -0.14201416 0.22867532 0.1671014 0.02113075
0001d0 7e 86 31 3e e4 bc 96 bb 2e bc ad be 1c 2d f6 bd
       0.17336461 -0.0046001542 -0.33932632 -0.12020323
0001e0 b0 4e 17 be 77 a9 b6 bd ea 0f a0 3c c1 36 cc 3e
       -0.1477611 -0.089190416 0.019538838 0.39885524
0001f0 2b 93 9a 3e 02 4b cf 3d 1c 84 23 bc f0 12 ec bd
       0.30190405 0.101217285 -0.009980228 -0.115270495
000200 d0 c4 9b bc ce 82 f3 3c 9a 95 91 3e 43 61 df bd
       -0.019014746 0.029725458 0.2843445 -0.10907223
000210 80 47 4c 3d 43 29 61 3d 7e 93 16 be 52 17 00 3e
       0.049872875 0.05497099 -0.14704701 0.12508896
000220 9a 2e a7 bd 09 4c 59 be 5a e6 8d 3d 3e 1f d7 bd
       -0.081631854 -0.21220411 0.06928702 -0.10504006
000230 97 c2 83 be b3 12 d2 3e 0d a2 29 be 3e cf 3c bc
       -0.25734398 0.4102989 -0.16565724 -0.01152402
000240 c2 fe ee be dc eb 56 be 0d 00 38 be ee d7 d7 3e
       -0.4667874 -0.2098841 -0.1796877 0.4215693
000250 de 5a c0 3b e8 f4 24 3e 97 38 fe 3e 3e 44 40 bd
       0.005870207 0.1610905 0.4965255 -0.04694008
000260 3b 62 81 3c a6 55 74 bd d8 a7 82 bd 75 7a df be
       0.01579391 -0.059651993 -0.0637967 -0.43648115
000270 8b 93 3f 3d d5 e8 ae 3d ab b3 55 3e 68 5a 4f 3d
       0.046771567 0.08540503 0.20869319 0.050623327
000280 df f0 80 3e 2e d8 fe 3c 36 27 80 be 23 37 80 bd
       0.2518377 0.031108942 -0.25029916 -0.062605165
000290 5a 53 51 3d 6a bd 5a bd 86 d7 57 3e d2 bd 52 3e
       0.05110488 -0.053403296 0.2107831 0.20580223
0002a0 9f a2 59 be d6 cd 19 bd cd 97 40 3d 50 1c 97 bd
       -0.21253441 -0.037549816 0.04701977 -0.07378447
0002b0 32 a2 13 be 55 a2 8e be d4 e5 b7 bd c0 4b b2 bd
       -0.14417341 -0.27858225 -0.08979383 -0.087058544
0002c0 cb e5 0a 3e ce f4 a7 3d 7d 76 18 be db 54 b4 bc
       0.13564222 0.0820099 -0.1488895 -0.022013118
0002d0 8c c7 25 3e 14 e5 dd bd 34 4a b2 be f6 0c 68 3e
       0.16189402 -0.10834709 -0.34822237 0.22661194
0002e0 b5 90 99 bd cf a6 b1 3d 61 ae 76 bd 83 b8 e9 3e
       -0.07498304 0.08674394 -0.060224894 0.45648584
0002f0 79 1a 80 3d 6a 73 4b bc 0c 41 d6 3c 35 f4 51 3d
       0.06255049 -0.012417654 0.026154064 0.051258285
000300 97 f9 31 3e af c2 e4 bd a4 3e e5 bd 94 59 ac 3d
       0.17380367 -0.111699454 -0.111935884 0.08415523
000310 a1 9f c0 bd fc 6f 91 bb 52 4d ea 3c c3 79 81 3e
       -0.09405447 -0.0044383984 0.028601322 0.2528821
000320 36 ca 0a be 0a cd d9 3d 83 78 4c 3d 5a 0b 75 be
       -0.135537 0.10634811 0.049919616 -0.23930112
000330 bb b0 e5 bd f5 53 99 be d8 35 de 3c f6 87 c7 bd
       -0.11215349 -0.29946867 0.027125284 -0.09742729
000340 bf 61 d4 3d 99 88 38 3e 62 dc 0d 3e c8 2e e0 3c
       0.10370206 0.18020858 0.138536 0.027366057
000350 1c dc 2c 3e 1a 09 7b be 77 07 80 be 99 06 1a 3e
       0.1688084 -0.2451519 -0.25005695 0.1504158
000360 6b ec 25 be 12 8b 9b 3d ab ec 8f 3b de 3b e8 3e
       -0.16203468 0.07594885 0.0043922267 0.45358175
000370 e1 f5 7c 3e 55 51 9a 3d 10 4d 29 3d 38 c0 ce 3d
       0.2470317 0.07535044 0.04133326 0.100952566
000380 c2 e5 7d be 07 b6 95 3d d6 da e3 39 6a 13 a3 bd
       -0.24794677 0.073101096 0.0004345986 -0.07962687
000390 4e b1 b5 3d c1 94 4b bd 0e 9d fc bc 32 1d a6 be
       0.08871709 -0.04970241 -0.030836608 -0.3244415
0003a0 93 92 f8 3d 29 0f 06 be b5 2a 38 3c 2c 89 55 3e
       0.12137332 -0.1309172 0.011240651 0.20853108
0003b0 eb 00 ee 3c b6 28 b1 3e 9b 0f c5 3d 30 65 d7 3c
       0.029053172 0.34601372 0.09622117 0.026293367
0003c0 7d 23 bb bd d5 ad 1c be bf a6 0f be f6 63 d8 bd
       -0.09137628 -0.15300687 -0.14028452 -0.10565941
0003d0 46 6c 27 be 5c d0 3e 3e cd 06 93 3e ab c9 2b be
       -0.16349897 0.1863417 0.28716126 -0.16776149
0003e0 f7 99 08 3e 8c bb a9 bd 5a c6 0f bd c9 13 03 bf
       0.13339983 -0.08287725 -0.035101272 -0.51202065
0003f0 c5 15 0b be e5 9b 68 bd 77 04 83 3c 2d 92 cd bd
       -0.13582523 -0.056789298 0.01599334 -0.100376464
